…
        "  def forward(self, x):\n",
        "\n",
        "    out = self.start(x)\n",
        "    out = F.relu(self.conv3(F.relu(self.conv2(out)))) + out\n",
        "    out = F.relu(self.conv5(F.relu(self.conv4(out)))) + out\n",
        "    out = F.relu(self.conv6(out))\n",
        "    return self.end(out)\n",
        "\n",
        "model3 = ThirdModel()\n",
        "print(model3)"
      ],
      "execution_count": 32,
      "outputs": [
        {
          "output_type": "stream",
          "text": [
            "ThirdModel(\n",
            "  (start): Sequential(\n",
            "    (0): Conv2d(1, 64, kernel_size=(7, 7), stride=(2, 2))\n",
            "    (1): ReLU()\n",
            "    (2): MaxPool2d(kernel_size=2, stride=2, padding=0, dilation=1, ceil_mode=False)\n",
            "  )\n",
            "  (conv1): Conv2d(64, 64, kernel_size=(3, 3), stride=(1, 1))\n",
            "  (conv2): Conv2d(64, 64, kernel_size=(3, 3), stride=(1, 1))\n",
            "  (conv3): Conv2d(64, 64, kernel_size=(3, 3), stride=(1, 1))\n",
            "  (conv4): Conv2d(64, 64, kernel_size=(3, 3), stride=(1, 1))\n",
            "  (conv5): Conv2d(64, 64, kernel_size=(3, 3), stride=(1, 1))\n",
            "  (conv6): Conv2d(64, 128, kernel_size=(3, 3), stride=(1, 1))\n",
            "  (conv7): Conv2d(128, 128, kernel_size=(3, 3), stride=(1, 1))\n",
            "  (end): Sequential(\n",
            "    (0): Flatten()\n",
            "    (1): Linear(in_features=1152, out_features=1024, bias=True)\n",
            "    (2): ReLU()\n",
            "    (3): Dropout(p=0.15, inplace=False)\n",
            "    (4): Linear(in_features=1024, out_features=128, bias=True)\n",
            "    (5): ReLU()\n",
            "    (6): Dropout(p=0.15, inplace=False)\n",
            "    (7): Linear(in_features=128, out_features=64, bias=True)\n",
            "    (8): ReLU()\n",
            "    (9): Linear(in_features=64, out_features=10, bias=True)\n",
            "  )\n",
            ")\n"
          ],
          "name": "stdout"
        }
      ]
    },
    {
      "cell_type": "code",
      "metadata": {
        "id": "NvUU6HYaJVOh",
        "outputId": "a6c30bf4-0eef-45b7-cf71-babe2348ef8c",
        "colab": {
          "base_uri": "https://localhost:8080/",
          "height": 783,
          "referenced_widgets": [
…
